…
                    ]
                ],
                "output_shape": [
                    [
                        626,
                        64,
                        13,
                        25
                    ]
                ],
                "num_parameters": [
                    36864,
                    64,
                    64,
                    36864,
                    64,
                    64
                ]
            },
            {
                "name": "resnet.5.0",
                "id": 140659860838888,
                "class_name": "BasicBlock(\n  (conv1): Conv2d(64, 128, kernel_size=(3, 3), stride=(2, 2), padding=(1, 1), bias=False)\n  (bn1): BatchNorm2d(128, eps=1e-05, momentum=0.1, affine=True, track_running_stats=True)\n  (relu): ReLU(inplace)\n  (conv2): Conv2d(128, 128, kernel_size=(3, 3), stride=(1, 1), padding=(1, 1), bias=False)\n  (bn2): BatchNorm2d(128, eps=1e-05, momentum=0.1, affine=True, track_running_stats=True)\n  (downsample): Sequential(\n    (0): Conv2d(64, 128, kernel_size=(1, 1), stride=(2, 2), bias=False)\n    (1): BatchNorm2d(128, eps=1e-05, momentum=0.1, affine=True, track_running_stats=True)\n  )\n)",
                "parameters": [
                    [
                        "conv1.weight",
                        [
                            128,
                            64,
                            3,
                            3
                        ]
                    ],
                    [
                        "bn1.weight",
…
                    ]
                ],
                "output_shape": [
                    [
                        626,
                        128,
                        7,
                        13
                    ]
                ],
                "num_parameters": [
                    147456,
                    128,
                    128,
                    147456,
                    128,
                    128
                ]
            },
            {
                "name": "resnet.6.0",
                "id": 140659860840008,
                "class_name": "BasicBlock(\n  (conv1): Conv2d(128, 256, kernel_size=(3, 3), stride=(2, 2), padding=(1, 1), bias=False)\n  (bn1): BatchNorm2d(256, eps=1e-05, momentum=0.1, affine=True, track_running_stats=True)\n  (relu): ReLU(inplace)\n  (conv2): Conv2d(256, 256, kernel_size=(3, 3), stride=(1, 1), padding=(1, 1), bias=False)\n  (bn2): BatchNorm2d(256, eps=1e-05, momentum=0.1, affine=True, track_running_stats=True)\n  (downsample): Sequential(\n    (0): Conv2d(128, 256, kernel_size=(1, 1), stride=(2, 2), bias=False)\n    (1): BatchNorm2d(256, eps=1e-05, momentum=0.1, affine=True, track_running_stats=True)\n  )\n)",
                "parameters": [
                    [
                        "conv1.weight",
                        [
                            256,
                            128,
                            3,
                            3
                        ]
                    ],
                    [
                        "bn1.weight",
…
